model: GPTNeoForSequenceClassification(
  (transformer): GPTNeoModel(
    (wte): Embedding(50257, 768)
    (wpe): Embedding(2048, 768)
    (drop): Dropout(p=0.0, inplace=False)
    (h): ModuleList(
      (0-11): 12 x GPTNeoBlock(
        (ln_1): LayerNorm((768,), eps=1e-05, elementwise_affine=True)
        (attn): GPTNeoAttention(
          (attention): GPTNeoSelfAttention(
            (attn_dropout): Dropout(p=0.0, inplace=False)
            (resid_dropout): Dropout(p=0.0, inplace=False)
            (k_proj): Linear(in_features=768, out_features=768, bias=False)
            (v_proj): Linear(in_features=768, out_features=768, bias=False)
            (q_proj): Linear(in_features=768, out_features=768, bias=False)
            (out_proj): Linear(in_features=768, out_features=768, bias=True)
          )
        )
        (ln_2): LayerNorm((768,), eps=1e-05, elementwise_affine=True)
        (mlp): GPTNeoMLP(
          (c_fc): Linear(in_features=768, out_features=3072, bias=True)
          (c_proj): Linear(in_features=3072, out_features=768, bias=True)
          (act): NewGELUActivation()
          (dropout): Dropout(p=0.0, inplace=False)
        )
      )
    )
    (ln_f): LayerNorm((768,), eps=1e-05, elementwise_affine=True)
  )
  (score): Linear(in_features=768, out_features=2, bias=False)
)